…
colab":{"base_uri":"https://localhost:8080/"},"executionInfo":{"elapsed":13,"status":"ok","timestamp":1700247648013,"user":{"displayName":"Sreelakshmi p","userId":"15613836138081509083"},"user_tz":480},"id":"wVFvmw0slxWY","outputId":"3819e444-e97a-4b4c-a425-3cc53844283c"},"outputs":[{"name":"stdout","output_type":"stream","text":["Model: \"sequential_5\"\n","_________________________________________________________________\n"," Layer (type)                Output Shape              Param #   \n","=================================================================\n"," conv2d_11 (Conv2D)          (None, 24, 24, 6)         156       \n","                                                                 \n"," average_pooling2d_10 (Aver  (None, 12, 12, 6)         0         \n"," agePooling2D)                                                   \n","                                                                 \n"," conv2d_12 (Conv2D)          (None, 8, 8, 16)          2416      \n","                                                                 \n"," average_pooling2d_11 (Aver  (None, 4, 4, 16)          0         \n"," agePooling2D)                                                   \n","                                                                 \n"," flatten_5 (Flatten)         (None, 256)               0         \n","                                                                 \n"," dense_15 (Dense)            (None, 120)               30840     \n","                                                                 \n"," dense_16 (Dense)            (None, 84)                10164     \n","                                                                 \n"," dense_17 (Dense)            (None, 10)                850       \n","                                                                 \n","=================================================================\n","Total params: 44426 (173.54 KB)\n","Trainable params: 44426 (173.54 KB)\n","Non-trainable params: 0 (0.00 Byte)\n","_________________________________________________________________\n"]}],"source":["model.summary()"]},{"cell_type":"code","execution
…
